model/vegs.tflite (tflite, 13340 bytes, 8 tensors)

arith.constant f4 [3, 32]
00000000: c4c2 d93a d177 3b3f 8c50 4a3f 6e28 373f
00000010: 09ea 31bf 39b5 b1bf 9872 01be e6ae c6bf
00000020: 2540 46be c4b6 dc3d fc82 543f ce97 473f
00000030: 5ac6 c0be 2a32 e2be 7df0 b6be c94c 4d3e
00000040: c569 b8bf 81df bcbf fca3 a3bf 506b 823f
00000050: 89db 843e 12f4 aebe 38f0 993d 6d27 d13e
00000060: cc05 4f3f e9ac 72bd d64f bc3e 4a40 ccbd
00000070: c525 15bf e0dc 63bf 1aeb b6bf d09f b8bf
00000080: 41b0 9abd 08b9 debd 52bf 283e d1f8 ab3e
00000090: e577 f73e bc56 353e 401f 533d 16be 24bc
000000a0: 7896 b83e 7a89 b0bf 1de3 a63e 8b18 cf3e
000000b0: aec6 4abe fb8d 133f 866c 29be 8246 eb3e
000000c0: 9e1a 60be 38e8 353e 63c0 533e 60ce a1bf
000000d0: 525f 373e f383 8a3e 81a6 a93e 818a c7be
000000e0: 68ce 19be 733c 1f3e 50f4 f53e bf17 913e
000000f0: 7c51 143f cec6 dc3e b478 82be 0f72 dd3d
00000100: 83ad a6bf d02e 82bf 966e cabf c782 94bf
00000110: 38b5 adbe a9ff 293f d075 233d 5598 5c3f
00000120: f8a1 3bbe 682c ab3f 4fa3 aebf fcba 72bf
00000130: f08f fcbd a45d a5be e966 443e 0e1d 16bf
00000140: f663 063e 62b2 343f cf97 303f 3b8f 4ebf
00000150: e6ae 313e f0be 823c 51e4 8d3e 5e62 1f3e
00000160: 8620 dcbf bf8f d7bd e333 95bf e2d5 233e
00000170: d775 e6be 42d3 353c 7551 2d3f cd75 3f3f
0.0016613831 0.732297 0.79029155 0.71546066 -0.69497734 -1.388343 -0.1264137 -1.5522125
-0.19360407 0.10777047 0.83012366 0.7796601 -0.3765133 -0.44178897 -0.35730353 0.20048822
-1.4407278 -1.4755708 -1.2784419 1.0188999 0.25948742 -0.34170586 0.07516521 0.40850392
0.8086822 -0.05924693 0.3677966 -0.099732 -0.58260757 -0.89008904 -1.4290497 -1.4423771
-0.07553149 -0.10875136 0.16479233 0.3358827 0.4833366 0.17708868 0.051543474 -0.010055086
0.360523 -1.3791955 0.3259515 0.40448412 -0.19802353 0.5763852 -0.16545305 0.4595223
-0.21885154 0.17764366 0.20678858 -1.2641106 0.17907456 0.27053794 0.33134845 -0.38972858
-0.15020144 0.15550403 0.48037958 0.2833843 0.57936835 0.43120426 -0.25482714 0.108127706
-1.3021702 -1.0170536 -1.5814998 -1.160241 -0.3392732 0.6640573 0.039907277 0.8616994
-0.18323505 1.3372927 -1.3643588 -0.94816566 -0.123321414 -0.32298005 0.19179882 -0.58638084
0.1312407 0.7058469 0.6898164 -0.806873 0.17351875 0.015960187 0.27713254 0.15564868
-1.7197425 -0.10525464 -1.165646 0.15999559 -0.4501178 0.011097731 0.6770242 0.74789125

arith.constant1 f4 [3, 32]
00000000: 038a fc3e e491 c93e a120 a03d 6d2c 013e
00000010: 7bed 86be 3cdf c63d c18a d03e d5d5 82bd
00000020: a218 ba3c 7232 adbf a659 033f bc90 0e3f
00000030: dbad ab3d bf63 3b3f 99e5 ad3e 77eb f23e
00000040: 3493 a33e 12ea c83e d82d 873d bf18 97bf
00000050: 0e62 b0be 79ec 2dbe 7843 00be e600 6e3e
00000060: 70ad 833d cb63 f73b 8f6c 3bbd a676 0f3e
00000070: 4cf2 303f a4d8 d03e b1b8 90be 0bde cf3e
00000080: f953 273f 17dc c03e 1163 033f afb3 0a3f
00000090: e6ce a6bd 1e46 c2bf 4bc5 bd3e dbb8 57bf
000000a0: 5fe2 163e f9c9 f0bd bec8 283f 612c 9e3e
000000b0: adb5 21bd 363b 683e ff6b dd3e f14d 0a3f
000000c0: 9645 e4bf 259b 8ebf cccc eabf f8fd af3f
000000d0: 24a1 6cbe 80ea cebb be63 c7be 68ca a0be
000000e0: 7ed3 4e3f ebc5 623e dffb 2a3f e31d 683e
000000f0: 6da3 5dbf 02d2 8fbf 414c b8bf f089 c9bf
00000100: 311e 97bf bc84 dfbf ec5c d3bf 7dd6 5fbf
00000110: 858e da3d a979 003f 9ddd 863e 44ea f63e
00000120: c84f 973e 1cd5 c13f 2c32 91bf 7695 7fbf
00000130: b180 6bbe 8026 1dbf bc48 9abe 254f 6cbf
00000140: cdc0 0e3f 618f 3c3f 4ebe 223e d42a abbe
00000150: 4a8c 763e fcdc b4be b057 fbbd 4c65 c3be
00000160: a00a b7bf 7218 8d3e 6b80 67bf f085 a7be
00000170: 104c 823e 9b35 2d3f 6d1b dc3e 174f ad3e
0.49324045 0.39369118 0.078187235 0.12614603 -0.26353058 0.09710547 0.4073086 -0.063884415
0.022716824 -1.353102 0.5130867 0.556896 0.0838277 0.73199075 0.33964232 0.4744527
0.31948245 0.3924108 0.06600541 -1.1804427 -0.3444981 -0.16984738 -0.12525737 0.2324253
0.06429565 0.007549738 -0.045757826 0.14010105 0.69119716 0.40790284 -0.28265908 0.40599093
0.6536251 0.37667915 0.5132304 0.54180425 -0.081449315 -1.5177648 0.37064585 -0.8426644
0.14734791 -0.11757273 0.6593131 0.30893233 -0.0394799 0.22678837 0.43246457 0.5402518
-1.7833736 -1.1141096 -1.8343749 1.374938 -0.23108345 -0.0063145757 -0.38943285 -0.31404424
0.8079146 0.22145812 0.66790575 0.22667651 -0.8657749 -1.1235964 -1.4398271 -1.574522
-1.1806089 -1.7462382 -1.6512733 -0.8743666 0.10671715 0.5018564 0.26340953 0.48225605
0.29553056 1.5143161 -1.1343436 -0.99837434 -0.2299831 -0.6138687 -0.30133617 -0.92308265
0.5576294 0.7365628 0.15892908 -0.33431113 0.24076954 -0.35324848 -0.122725844 -0.3816322
-1.4300117 0.27557713 -0.90430325 -0.32719374 0.25448656 0.6765992 0.42989674 0.33849403

arith.constant2 f4 [32, 64]
00000000: e5ac d83e 2264 94bd 8a2f d0bd 091c ec3d
00000010: 7d8f f33e 39f0 b33e e0af c3bd 3c71 18be
00000020: 19ba 1a3b ac3a b73e 1638 a03f a1fe 4ebe
00000030: 1db5 d2bc 9d99 9dbd ff43 06be d18b f2bd
00000040: 4060 ab3e 507c 833f 0a14 d13e cff1 99be
00000050: 2202 a33d 0be8 bf3e 5d5e 32be 866a 063e
00000060: b00d 9f3e a2f6 a03e 8872 ebbd 12e1 393f
00000070: dfe3 49bd 0cd1 663f c866 553f 6431 be3e
00000080: 9c8c c0be a047 de3e 7211 8dbe 1c87 2f3f
00000090: 6c5b e83d e17f 073f 4035 a9be 4816 d9bd
000000a0: 53a3 b3bd ac9f 073f 396d f83e 4e1c 9a3d
000000b0: 47cf c1be 651a c73e f399 693f a950 2e3f
000000c0: 611f 99be fcd2 5fbe 80d5 393e c248 3bbd
000000d0: 8a6d e6bc 05fe a1be e842 63bc 49c8 fe3d
000000e0: d89a 193f 2282 acbd d47f 42be 1c4c 7f3e
000000f0: 2416 123f b94e 56be 78ee 933d bc44 0fbe
00000100: 8cf9 d33e ebeb e93d 965e 03be 20c9 873d
00000110: a4bb 6a3f 350a d13e 60bc 07be 59d1 19bf
00000120: 09ea c73e 9397 fc3e 60e8 4b3f f7fc f5bc
00000130: 0b0e c3be 4d2a f3bb 7e6a 85be 7910 01be
00000140: 20c8 3c3f 5170 483f aef3 2a3f 7ccd 0fbc
00000150: fac9 063f c583 8b3e cec2 84be 7a54 9c3d
00000160: b097 173f 2d28 403f 0ce9 713e 040c f73e
00000170: 6513 553e 6977 5b3f 9360 f03e 3859 733f
00000180: 3e37 fabe ecf1 223f 047d 35be 3e57 1e3f
00000190: 76f6 ce3e cf66 243f 53f8 bb3d 88e8 76be
000001a0: e016 abbe d1db 213f 884a 2f3f de77 8cbe
000001b0: fc2e 9cbe 3b67 2f3f 9691 403f 2090 493f
000001c0: aec1 2a3e 40d0 2cbe 49f6 083e 09d3 1abe
000001d0: b527 5f3e 63cc 95bd a67c 74bd dc11 94be
000001e0: a78f 6a3f e92a 55be 8488 78be 3068 693d
000001f0: 7b39 0e3f 84ec 34be 3c6c 473e 4bd6 f1bd
00000200: 82c2 163f 6a03 813e 6b6d 423d 1ab1 7e3d
00000210: 847b 663f 628f 673e e085 2b3d f107 b9be
00000220: 7d08 383f f9c3 c53e 3e4d 873f b72b 54be
00000230: ecbc 64be 03dd bb3c 5bee 15be f367 0cbf
00000240: 263c 3f3f 1cf2 5b3f 7f54 423f 7321 b3be
00000250: ef7b c83e 5a0b b93e 364f 753d 4dc1 e6bd
00000260: 3c5f 033f bfdd 253f 108e 123d a9c7 363f
00000270: 05bd 513b 86f2 2b3f eb67 4c3f e182 263f
00000280: c5fc 0abf 68c3 443f 0b50 12bf 3ae7 463f
00000290: 3de5 043f b9fe 733f a9ab 9dbe c061 8dbd
000002a0: 97b0 bdbe 31bc 023f 18e8 3e3f 5bb3 3abd
000002b0: 5934 cfbd 28ab ba3e 9b15 593f 228f 413f
000002c0: 9846 9b3b 583e bebd 9282 033e 77a9 a9bd
000002d0: a582 323e bdb2 b6be a3fa 80be a6ce dcbd
000002e0: befb 073f 6f9c afbd ac38 493e b8dd b5bd
000002f0: d3da 503f 2073 74bb 5872 5d3e 1dea a9bd
00000300: 4742 383f 8c42 553e 9109 b2be 25cb 4e3d
00000310: 035f 5e3f 8f28 cc3c d0f7 f13d 6268 c2be
00000320: 2798 0a3f 6235 4a3f 7649 8a3f 0d61 193e
00000330: d50c 7fbe c448 46be d598 bbbd d4dd 9cbe
00000340: 1b93 103f c366 773f 7ef6 573f 3080 30bd
00000350: fb3e 283f d0cb b23d 2869 79be 3414 323e
00000360: d710 693f 3673 5d3f b830 89bd e632 2e3f
00000370: 1fc6 12be cef6 503f 0d51 033f 994a 833f
00000380: 1132 b0be f87b 0d3f 9505 09bf cf85 1a3f
00000390: b230 0f3f 841c 303f 49c1 80bd ccbe 34be
000003a0: 2002 84be 0845 313f 48c3 0a3f a23b abbd
000003b0: 159e a0be 286c 3b3f 3d03 4c3f ee99 e83e
000003c0: 6e09 ae3c 205a 463d e16d 493e 5d0c 7bbc
000003d0: 2aeb d13e 4091 45be af4a 31be fdb8 db3d
000003e0: 6531 653f 399c 94be e471 68be 9011 5cbe
000003f0: 5166 4c3f 8fd1 b53d ec74 72be 1d1c 113e
0.42319408 -0.07245661 -0.10165317 0.11528785 0.4757041 0.35144213 -0.0955503 -0.14886945
0.0023609458 0.3578695 1.2517116 -0.2021432 -0.025721127 -0.07695315 -0.13111876 -0.11843074
0.3347187 1.0272312 0.408356 -0.30067298 0.07959391 0.37481722 -0.17418809 0.13126573
0.3106513 0.31438166 -0.114964545 0.72609055 -0.04928958 0.9016273 0.83359957 0.37147057
-0.37607276 0.4341402 -0.27552372 0.68565536 0.11345562 0.529295 -0.3304844 -0.10599953
-0.08771386 0.52978015 0.4852083 0.0752493 -0.37853453 0.38887325 0.9125053 0.6809183
-0.29906753 -0.21857828 0.1814785 -0.045723684 -0.028128404 -0.31639114 -0.013870932 0.12440545
0.600019 -0.08423258 -0.18994075 0.24931377 0.57065034 -0.20928468 0.07223219 -0.13991064
0.41401327 0.11421951 -0.1282905 0.066301584 0.91692567 0.408281 -0.13255453 -0.60085064
0.39045742 0.49334392 0.7965145 -0.03002785 -0.3809665 -0.007420814 -0.2605781 -0.1260394
0.73742867 0.7829638 0.66778076 -0.008777019 0.5265194 0.2724897 -0.25929874 0.076333
0.5921583 0.75061303 0.23624057 0.48251355 0.2080818 0.8572908 0.4694868 0.9505801
-0.4887027 0.63650393 -0.17723471 0.6185187 0.4042241 0.64219373 0.091782235 -0.24112141
-0.3341589 0.6322604 0.684731 -0.274352 -0.30504596 0.6851689 0.75222147 0.7873554
0.16675445 -0.16876316 0.133752 -0.15119566 0.21792491 -0.07314374 -0.059689187 -0.28919876
0.91625446 -0.2081715 -0.24270827 0.056984127 0.5555646 -0.17668349 0.19474882 -0.11808451
0.58890545 0.25197917 0.04746763 0.062180616 0.9003222 0.2261329 0.04187572 -0.3613887
0.7188795 0.38626078 1.0570447 -0.20719801 -0.22337693 0.022932535 -0.14641707 -0.54846114
0.74701154 0.85916305 0.7591018 -0.34986457 0.39157054 0.36141473 0.059889995 -0.11267338
0.5131719 0.6479148 0.035780013 0.7139841 0.0032003534 0.67166936 0.79846066 0.65043455
-0.54291946 0.76860666 -0.57153386 0.77696574 0.5191229 0.9531055 -0.3079503 -0.0690341
-0.3704879 0.5106841 0.74572897 -0.045581203 -0.101174064 0.36458707 0.8479859 0.7560903
0.00473864 -0.09289235 0.12842777 -0.08284276 0.1743265 -0.3568324 -0.2519122 -0.107816026
0.53118503 -0.08574759 0.19650525 -0.0888018 0.815839 -0.0037300065 0.2162565 -0.08296607
0.7197613 0.20826167 -0.34772924 0.050486702 0.86863726 0.024921684 0.118148446 -0.37970263
0.54138416 0.78987706 1.0803668 0.14978428 -0.24907239 -0.19363695 -0.0916001 -0.3063799
0.56474465 0.96641177 0.8436049 -0.043091 0.657211 0.087302804 -0.2435652 0.1739052
0.9104132 0.8650392 -0.066987455 0.68046415 -0.1433339 0.81626594 0.5129555 1.025714
-0.34413198 0.55267286 -0.5352414 0.60360426 0.5593368 0.6879351 -0.06286866 -0.17650908
-0.2578287 0.6924596 0.54204226 -0.083609834 -0.31370607 0.7321191 0.7969244 0.4542994
0.02124473 0.048425794 0.19670822 -0.015322772 0.40999728 -0.1929369 -0.17313646 0.10728643
0.89528495 -0.29025438 -0.22699696 -0.21491075 0.7984362 0.08877861 -0.23677415 0.1417088

functional_1/dense_1_2/Add/ReadVariableOp f4 [32]
00000000: e14f 9c3e 3ed4 873e 0a5a a13e b777 973e
00000010: 6907 933e b6ad ba3d 0000 0000 8bc5 893d
00000020: 99d1 b9bb 4235 85be 066b b33e c921 a43e
00000030: 5899 12bc 3d3f a03e 358a 2ebd 8834 b73e
00000040: 9074 cb3d e8d8 a13d 4613 913d 53f1 f9bc
00000050: 0000 0000 0000 0000 0000 0000 0000 0000
00000060: 7e56 833e 4785 4dbc 0f82 b13e e415 20bd
00000070: b72b 803e 069a 173e 39a3 9f3c 371f d23d
0.30529693 0.26529115 0.31514007 0.29583523 0.2871659 0.09115164 0.0 0.067271315
-0.005670738 -0.26017195 0.3504259 0.32057026 -0.008947693 0.31298247 -0.042612273 0.35782266
0.09934342 0.079027 0.07083754 -0.03051058 0.0 0.0 0.0 0.0
0.25651926 -0.012543983 0.3466954 -0.039083377 0.25033352 0.14804849 0.01948701 0.1025986

functional_1/dense_1/Add/ReadVariableOp f4 [64]
00000000: 7e88 c23e 67ec ef3e 0463 a03d b78b ef3d
00000010: 10ba 02bd 2166 743e 0000 0000 6a94 debd
00000020: c729 cb3d 73b4 ad3e a365 ad3e ca17 4dbd
00000030: 956a a6bd edb3 3c3e 52f0 733d de37 1bbe
00000040: 935b a33d 1cb5 9c3e 10d0 753e 6f90 c0bd
00000050: 1492 e93d d590 f93e 8278 fb3d 83a1 b03e
00000060: 6601 9e3e 1488 283e 0000 0000 f8ad c83e
00000070: 72fd 01bd a3a5 a33e 23df b63e 5dfd ecbc
00000080: 9007 49bc 9410 4c3e 5ae1 1ebe 9987 be3e
00000090: fe7d 1d3e 2a09 4c3e 44ed 9bbc 0000 0000
000000a0: 7710 78bd 3e5a a13e 4a92 a13e bc02 073e
000000b0: 01c5 f5bd c64f 953e 635d c33e ece1 a93e
000000c0: 8762 743e 0000 0000 a8ce 923e 4537 69bc
000000d0: b870 b0bc e1e3 d73b 649d 9bbd 2be3 d13d
000000e0: bc5a ba3e a68a 3d3d f33f b5bb 0000 0000
000000f0: e364 943e b96b 18be 0000 0000 0cf9 b7bc
0.3799476 0.46860048 0.07831386 0.1169657 -0.031915724 0.23867084 0.0 -0.108681515
0.09920078 0.33926734 0.33866605 -0.050071515 -0.08125798 0.18428011 0.05955536 -0.1515803
0.07976451 0.30606925 0.24005151 -0.094025485 0.11404815 0.4874331 0.122788444 0.34498224
0.30860442 0.1645816 0.0 0.39195228 -0.031735845 0.31962308 0.35717115 -0.028929407
-0.012269869 0.19928199 -0.15515652 0.37212828 0.15380093 0.19925371 -0.019034036 0.0
-0.060562577 0.31514162 0.31556922 0.13184637 -0.12000466 0.29162425 0.38157186 0.33180177
0.2386571 0.0 0.2867329 -0.014234369 -0.021538123 0.0065884446 -0.07598379 0.10248407
0.3639735 0.046274804 -0.005531305 0.0 0.2898322 -0.14884843 0.0 -0.022457622

functional_1/kategori_gula_1/Add/ReadVariableOp f4 [3]
00000000: 2af3 403e 93f3 c1bd a46d 2ebe
0.1884276 -0.09470286 -0.17034012

functional_1/rekomendasi_1/Add/ReadVariableOp f4 [3]
00000000: 5741 0abe e094 823e 2783 4dbe
-0.13501488 0.25504208 -0.20069562

functional_1/dense_1/MatMul f4 [64, 5]
00000000: 5957 bdbd 4ae9 ecbd de8a 63bf 26f7 703e
00000010: a97d fabd a4b3 5e3e 92c2 29be 1da7 4fbe
00000020: 4827 fa3d cbb1 943e 2310 2c3e cc5b ab3e
00000030: 0fc8 9f3f 4741 cd3d bd25 6a3e d4d4 f73e
00000040: 8bd1 873e 041b 473f fa5e 31be 4848 af3d
00000050: 5675 b03e 65c0 71bf e761 45bf 05fb 803d
00000060: c378 1fbc b480 fcbc c45f bf3d 23dd 0fbf
00000070: d097 a8bd ce40 243d 0059 eeba 8178 10be
00000080: 3ae1 5cbe 946a 47be 000f ca3a 14e7 a83d
00000090: 169a 473e 9b89 b03f 02dd 153e 1eae 4f3e
000000a0: 71e7 503e 86dd 90bf f773 5dbf 910c 063e
000000b0: 294c ec3d 992d 083e a6ca 52be ef02 75bf
000000c0: c89f b2bc b90b 173e 3cbd 75bd 10f2 d9bc
000000d0: 4071 70bf 3923 bebd b41c 71bc 751c 80bd
000000e0: 4671 d53c ec28 0a3e bfe6 3d3c 3046 26be
000000f0: b133 b33e 5aae e03e 17eb 6b3f 7095 69bc
00000100: 539c 873e ac89 cc3e 3adf a53e f4f5 bb3f
00000110: afbe 2ebe a959 ab3c d6cc 023f f705 ed3d
00000120: dded a13f b76d ac3d e69b aebd 9810 913e
00000130: d0e9 cf3e 0627 773f 781f 3d3d acab b13d
00000140: 7038 ef3e 5a6a a2bf 212b 82bf 4565 54bd
00000150: 5971 273e aa08 cebd cf88 b1bd 91ef 8cbf
00000160: 8792 303c c17c a13d 5d09 8abf 2234 f93d
00000170: 1e4d 29bf 2fdd b13c dc36 1c3e 837c 243e
00000180: e6dc e43e 2848 883f 4899 f03d e6d5 f13d
00000190: d60e c63e 494f 6fbf 84cc 76bf 91ed e83d
000001a0: cb60 a23d 3efd f13d c19c f73d 7e2c 19bf
000001b0: acd2 123e b223 10be 9bdb ba3e ddd3 5c3e
000001c0: 3c46 783f 2a39 e1bc 3ac8 43bd 471f 62bc
000001d0: 71b0 553e dacb da3e 3eec 343d 1135 e7bd
000001e0: 6b75 b73e cda9 35bf 2d10 1ebf 4b41 87bd
000001f0: 48e6 303d c27a 96bf 7fe9 bd3e 4637 86bf
00000200: df87 b1bc 09b4 483e bcdd 25be 8fd6 64be
00000210: ec60 f23d 12c2 86be 5202 2fbe ef07 80be
00000220: f796 d23d e9a9 53bf 19e7 3ebe 03a6 463e
00000230: ae91 23bc b1a3 523c b956 fe3b 0673 0abd
00000240: 5100 33be 6014 b2bd e190 eebd 600f 9abf
00000250: 7df8 ff3c 3eae e63d 61b7 d83d b85a 5dbe
00000260: 8c58 70bf 238a eb3b e1db 1c3c 905a e0bf
00000270: 4124 993e fb13 5dbf 2f8f d33d 488c 2c3e
00000280: 2545 d33e 5d1a 363e 4972 953f e1b4 bcbd
00000290: 5e3c f23d 78a6 eb3e 6d51 00bf 9129 11bf
000002a0: 126c 28bd 7d21 093d a5fe 083e 94ad b53e
000002b0: a163 7b3f 7bbb d53c 8a60 843e 4f92 f8be
000002c0: 5206 c53e 3c93 f0be e033 0cbe ef3e 9cbd
000002d0: 2094 e13e ca82 43bf 7b59 3dbf a57e 353d
000002e0: bf3f 4f3d bf8c 44bf d440 c83d 03b1 84bf
000002f0: 3516 653e 98f2 923d a54f e53e 9694 a1bb
00000300: a9e9 2c3f 491c 933d 9a62 5a3e 7f59 00be
00000310: 96cb b2bd b539 0dbe dfbb 35be 8ec9 d0bd
00000320: 9ebf d83e 8626 d5ba ce63 8d3f 1a4f b03d
00000330: 59f7 c03d 9ca2 6dbe 928d 533c 4661 85bf
00000340: 314a 943e 915f 423c 22cf 54be 7e7c 42be
00000350: bdbe 3abf 7a5b ee3d 3236 fd3d 657a 823e
00000360: 5e04 ad3e 6e61 a43f 0a1d 27bd e254 4d3e
00000370: 3971 c83e 0a16 873e d05a 163f 5aab 903e
00000380: 41dc c7bd 5e8a 36be d2db 59bd e127 70bf
00000390: db8c 363e 6ec6 b63d 2ea3 3b3b 78dd 3cbe
000003a0: d6aa 76bf 8b0d 043e 634a a0bd 2164 9ebe
000003b0: f1cf 80bd 6622 39bf 3286 86bc b21a 383e
000003c0: 5863 af3e e6cb 2a3d e816 e53f 21fa 96bd
000003d0: 09f4 26be 2e57 b2bd bb44 29be d4b9 d53d
000003e0: a42d cdbd 80f4 a63b e61f 2b3e c250 803e
000003f0: 52ab 963f c319 a73e 24d0 1fbc e4ca 2fbd
-0.09245176 -0.11567934 -0.8888377 0.2353178 -0.12230999 0.21748215 -0.16578129 -0.20278592
0.122145236 0.29041895 0.1680303 0.33468473 1.2482928 0.10022216 0.22865959 0.48404562
0.26527056 0.777756 -0.17321387 0.085587084 0.3446452 -0.94434196 -0.7710251 0.06297878
-0.009733382 -0.03082309 0.09344438 -0.561968 -0.08232081 0.040100865 -0.0018184483 -0.14108469
-0.21570292 -0.1947425 0.0015415847 0.082472 0.19492373 1.3791994 0.14635089 0.20281264
0.20400788 -1.1317604 -0.86505073 0.13090731 0.11537964 0.13298644 -0.20585117 -0.957076
-0.021804705 0.14750566 -0.05999492 -0.026604682 -0.93922806 -0.09284062 -0.014716316 -0.06255428
0.02605499 0.13492173 0.011590659 -0.16237712 0.35000375 0.4388302 0.92155594 -0.01425682
0.26486453 0.39948785 0.3239687 1.4684434 -0.17064928 0.020916777 0.51093805 0.11573403
1.2650715 0.08419364 -0.08525829 0.28332973 0.40608072 0.9654392 0.04617259 0.08675322
0.46722746 -1.2688706 -1.0169412 -0.05185439 0.16351832 -0.10060246 -0.08668672 -1.101061
0.010777122 0.07885123 -1.0784107 0.12168147 -0.66133296 0.021711914 0.15255302 0.16063122
0.44699782 1.064702 0.11747986 0.11808376 0.38683194 -0.93480355 -0.96405816 0.11373437
0.07928618 0.1181588 0.12090445 -0.59833515 0.14338177 -0.14076117 0.3649567 0.21565194
0.9698217 -0.027493078 -0.047798373 -0.013801402 0.20868088 0.4273365 0.04417061 -0.112894185
0.3583177 -0.7096222 -0.6174343 -0.066042505 0.043188363 -1.1756213 0.37092206 -1.0485618
-0.021671234 0.19599928 -0.16197866 -0.22347473 0.11834893 -0.2631994 -0.17090729 -0.25006053
0.102827005 -0.8268114 -0.18642844 0.19399266 -0.009983463 0.01285641 0.007761803 -0.0338011
-0.1748059 -0.086952925 -0.11648727 -1.2035942 0.031246418 0.11263703 0.10581852 -0.21616638
-0.9388511 0.007188098 0.009573908 -1.7527637 0.29910472 -0.8635861 0.103300445 0.16850388
0.4126369 0.17783494 1.1675502 -0.092141874 0.118279204 0.46025443 -0.50124246 -0.5670405
-0.04111869 0.033479203 0.13378389 0.35483992 0.98198897 0.026090374 0.25854903 -0.48549125
0.38481385 -0.4698733 -0.13691664 -0.07629191 0.44058323 -0.76371443 -0.7396466 0.04431023
0.050597902 -0.7677726 0.0977799 -1.036652 0.22371753 0.07175177 0.44787326 -0.004931043
0.6754404 0.07183129 0.21326676 -0.1253414 -0.08730237 -0.13791545 -0.17747448 -0.101946935
0.42333692 -0.0016262091 1.1046083 0.086088374 0.09422178 -0.23206562 0.012912171 -1.042031
0.28962854 0.011863605 -0.2078214 -0.18992803 -0.72947294 0.116385415 0.123638526 0.25484005
0.33792394 1.2842233 -0.04079918 0.20051911 0.39148882 0.26384002 0.5873232 0.2825573
-0.09758807 -0.1782622 -0.053188153 -0.9381085 0.1782717 0.08924566 0.0028631198 -0.18443859
-0.96354425 0.12895791 -0.07826688 -0.30935767 -0.06289662 -0.7231811 -0.016421411 0.17978933
0.3425548 0.04169836 1.7897615 -0.07371927 -0.1630403 -0.087080345 -0.16530125 0.104358345
-0.10018471 0.0050950646 0.16711387 0.25061613 1.1771033 0.32636842 -0.009754214 -0.0429181
